Assets/AlmaModel/anymal_d/config/non_ros/motion_control/trekker/stair_climbing_2022_05_05_09_35_48_1500.pt (torch, 499403 bytes, 30 tensors)

log_std f4 [16]
00000000: 0000 0000 0000 0000 0000 0000 0000 0000
00000010: 0000 0000 0000 0000 0000 0000 0000 0000
00000020: 0000 0000 0000 0000 0000 0000 0000 0000
00000030: 0000 0000 0000 0000 0000 0000 0000 0000
0.0 0.0 0.0 0.0 0.0 0.0 0.0 0.0
0.0 0.0 0.0 0.0 0.0 0.0 0.0 0.0

weight f4 [64, 32]
00000000: 43f1 4dbe 4142 02be 7710 86be 9978 3bbb
00000010: 1997 0e3d ca1e 5cbe 9fe6 92be 4541 9e3d
00000020: 87d8 04bf 3978 5d3e d18e 78be 68c0 5d3e
00000030: 3d66 49be 7d32 a1bd ebd7 853d 1fd9 623e
00000040: 431d 01be efbc 50bd 2a41 5ebc 0fc7 1fbd
00000050: ccba 84be 110d 2a3e 0d67 c63d c6cb 5c3d
00000060: e65a 433e 85c3 53bd 6edd 223d b82b bf3c
00000070: 6ee4 9d3c afa4 cbbd af16 c6bd aca5 debd
00000080: 5f4a be3e 1e5d cbbd 09e0 493e ba61 89be
00000090: f018 ed3d fb59 213f 9875 aa3d c312 93be
000000a0: a4e9 2dbe 6b91 b0bd 52e0 90bc e3f4 8e3b
000000b0: f11f 89bd 16a2 e2bb 5d3b 073c 6230 c53d
000000c0: 177c 713e 4c20 a73d 6c24 733e ee1b ee3e
000000d0: 8724 0ebf cb8e bfbe f0a2 4b3e f194 2e3d
000000e0: 7ff8 c53e 4da7 bfbc 7554 08bf aec3 41be
000000f0: a95c b83e df83 0f3f f91d 223c da89 57bf
00000100: ef2a 583f 2719 8cbd b4e0 7ebe 8835 64be
00000110: ba48 d93d ebf3 c23e cdb7 3bbc 7b44 c33e
00000120: eff4 af3d e9c7 fdbc 957c 16bf 1055 0f3e
00000130: 3a45 02be 04a2 553e 5f57 923e d877 c63d
00000140: cfe0 0d3e d990 513b 43fd a43e 35a9 923e
00000150: bb2b 3ebe 1781 b93e e4de 4b3d 5d0c 573d
00000160: a9f9 cf3e 6927 c9bd 4784 3a3e 2da3 6abe
00000170: 7837 33be 2d5b dc3e 2fec b53e 14c4 57be
00000180: e0c3 fa3c 5bbb c0bc c114 bc3e afd5 b6be
00000190: 81b1 f2bd 3c47 e53d 63e2 d3be 1320 633e
000001a0: c581 7f3e 4092 1f3e 0a98 eb3d af65 36be
000001b0: 2e47 b6bc 7f35 96bd d7d5 8e3d 9fc6 0ebe
000001c0: 36da c4be f30d 38bd a47f 22be 6984 a83e
000001d0: 59d1 fabe 3874 393e 4dd1 86bd a498 563d
000001e0: c175 84bd 1e78 a1bd aa9d 45be f6f4 eb3b
000001f0: a62d adbd b1e9 913d 41cb ea3e 1da7 423d
00000200: 0a31 cf3d 207c 6bbe da03 6dbd dbc6 66be
00000210: 3596 15bd 9f16 c83e 63b0 50be 3f07 a5be
00000220: 4299 94bd 844a 9bbd dad8 83be f3c5 d53d
00000230: 7cea e03d 6659 66bd 207a 81bd 8fb3 053d
00000240: 320d be3c 7c65 8fbd 9d5a 2a3e 42fb a23e
00000250: 869b 5e3e e116 25be 209a e8bc 9d61 a8bc
00000260: 0cd1 2ebe 396e b03d 13e5 a83e e394 6b3e
00000270: bc3b e13e 967d b8bd 02a9 193e 6f82 7c3d
00000280: 5e4b 38be b1e2 34bd 0249 05be dcf9 b53e
00000290: 002b 903e d34a 6ebe 84f5 093f b560 70be
000002a0: d3b0 913e e41d 403e e38b f7be 3b63 703c
000002b0: 3ddc 53bc 4c97 0ebe 25a1 e73d ede0 bebd
000002c0: c00c 8d3d 9896 61bd 89e2 aabd 2903 1d3e
000002d0: b709 c83d 027a 59bd 31e3 8c3d 377c 5fbe
000002e0: d210 3b3e e17f 303f e288 72be ba64 a4be
000002f0: 3cc9 89be dd76 fc3d 0f4c 073e 1051 5f3d
00000300: bb1c 98be fbcd 6ebd d1ee 2bbd 0cd4 59be
00000310: efa5 243e 5d20 20be 4201 c4be c21d 9f3c
00000320: f544 b03e fe44 47bd 3477 e4bd 655d 21bd
00000330: 7202 8d3e 92f3 ee3d a910 aabd b755 16be
00000340: 3b77 0cbd 183c f7bc 3411 e6bd f9d1 9c3d
00000350: 40e7 0abd 9e9d 503e 9154 103d f1ef 243e
00000360: 15f2 5a3e bcf6 91bd 96a2 0cbe c357 87bd
00000370: 9819 e7bd eb68 a2be 806d 873e 1af9 90be
00000380: 0329 00be c94d c4be 8f57 153d f826 7c3e
00000390: ab47 f1bd 927f b0be cfde e53e 21b9 b5bd
000003a0: bdea 12be 69bc bf3d 512d 5bbe 4a14 393e
000003b0: 290a 76be d923 cabc 80f8 8abd e041 5bbd
000003c0: c688 42be 57ca a5bd ef9a b2bd f24c a1bd
000003d0: c56c a03d b6db 71bd 84b5 423e 5739 61be
000003e0: a960 e6be 41e3 e4bd 998a 4a3c 9d3c b6be
000003f0: 591b 303e e0c5 05bf 7940 053e 36e9 05bc
-0.20111565 -0.12720586 -0.26184437 -0.0028605817 0.034812067 -0.2149612 -0.28691575 0.07727293
-0.51892895 0.21627893 -0.2427323 0.21655428 -0.19667907 -0.07870958 0.06535324 0.22153138
-0.12608819 -0.05096143 -0.013565341 -0.039008196 -0.25923765 0.16606547 0.09687624 0.05390527
0.19077644 -0.051700134 0.039761953 0.023336276 0.019273963 -0.0994352 -0.09672295 -0.10871443
0.37166116 -0.0992987 0.19714369 -0.26832372 0.11577022 0.63027924 0.083232105 -0.28725252
-0.16983658 -0.08621486 -0.01768509 0.004362689 -0.066955455 -0.006916295 0.008253899 0.09628369
0.23582493 0.08160457 0.23744363 0.46505684 -0.55524486 -0.3741363 0.19886374 0.04262251
0.3866615 -0.023395205 -0.5325387 -0.18922302 0.36008194 0.56060594 0.009894841 -0.8419472
0.8444051 -0.06840735 -0.24890405 -0.22286046 0.106095746 0.3807672 -0.011457396 0.38138184
0.08591639 -0.030979114 -0.5878385 0.13997293 -0.1272172 0.20862585 0.28582284 0.09690827
0.13855289 0.0031977205 0.32224473 0.2864472 -0.1857137 0.362313 0.049773112 0.052502025
0.40620163 -0.0982197 0.18214522 -0.22913809 -0.17501628 0.43038312 0.35531756 -0.21070892
0.030610979 -0.023526838 0.36734584 -0.35709903 -0.118502624 0.111952275 -0.41383657 0.22180204
0.24951847 0.15583134 0.115036085 -0.17812227 -0.022250738 -0.07334422 0.069743805 -0.13942955
-0.38447732 -0.044935178 -0.15869004 0.3291352 -0.48987845 0.1811074 -0.0658289 0.052391663
-0.06467772 -0.07884239 -0.19298425 0.0072008325 -0.084559724 0.07124651 0.45858195 0.047522653
0.10116775 -0.22996569 -0.057865 -0.22536795 -0.0365202 0.3907976 -0.20379786 -0.3223209
-0.07255794 -0.07582572 -0.25751382 0.104381464 0.10982224 -0.0562376 -0.063221216 0.032641944
0.023199651 -0.070017785 0.16636129 0.3183232 0.21739015 -0.16122009 -0.028393805 -0.020554358
-0.17071933 0.08614773 0.3298727 0.23006015 0.43990886 -0.090083286 0.15005878 0.06164783
-0.179975 -0.044161502 -0.13016132 0.3554219 0.28157806 -0.2327073 0.5389025 -0.23474391
0.2845522 0.18761402 -0.48348913 0.014672096 -0.012930927 -0.13924903 0.11310033 -0.09320245
0.068871975 -0.055075258 -0.083439894 0.15333237 0.09767478 -0.05309487 0.06879271 -0.21824728
0.18268135 0.6894513 -0.23685029 -0.32108098 -0.26911342 0.12327359 0.13212608 0.054520667
-0.2970942 -0.058301907 -0.0419758 -0.21272296 0.16078924 -0.15637346 -0.3828221 0.01942337
0.3442761 -0.04864978 -0.11155549 -0.03939571 0.27540928 0.11667551 -0.08303959 -0.14681135
-0.034293395 -0.030180022 -0.1123375 0.076572366 -0.033911943 0.20372626 0.0352369 0.16107155
0.2138141 -0.07127139 -0.13733897 -0.06608536 -0.112841785 -0.3172067 0.2645073 -0.2831505
-0.12515645 -0.38340595 0.036460456 0.2462424 -0.11781248 -0.34472328 0.44896552 -0.08873201
-0.14347358 0.09362108 -0.21404006 0.18074146 -0.24027313 -0.024675297 -0.06785679 -0.05352962
-0.18997487 -0.08095234 -0.087209575 -0.07876004 0.07833246 -0.059047423 0.19014555 -0.2199453
-0.4499562 -0.11176158 0.012362146 -0.3559312 0.17197932 -0.5225506 0.13012876 -0.008173278

bias f4 [64]
00000000: a493 bdbc 0761 d6bc e068 19be b5c1 643e
00000010: 4be4 bcbd 1e1e 253e 2310 f53d 14df 093d
00000020: 19d0 6dbe ca3e 94be 8390 2a3c 668b 253e
00000030: 56ff 8a3d cb33 e0bc fc75 ee3d 9714 8d3c
00000040: 1a6d c13d 8021 0ebe 567d d73e 2b0d 87bc
00000050: f998 3e3d 7478 123e 9bd3 dcbd cfde dabd
00000060: b090 3dbe 5fb1 a4bd 7bee 2cbe 6158 133e
00000070: bb56 243e ff4e 38bd 30b5 0c3e c1c6 473d
00000080: 3416 2dbd b948 883e 35dd c3bc 1cfd 85bd
00000090: e9e1 ac3d beb1 16be 5c08 c8bd b21b 043d
000000a0: 748e fcbd 8188 a93d fb60 a6bc a5f3 b8bc
000000b0: 6502 7bbe 47e2 09be 6e2e 71bc 94a0 41bd
000000c0: 4658 0abc 8bb7 ccbc f417 3c3e 501a 1cbe
000000d0: 8781 9bbd ff7a 373e 3b98 b93d 101b a0bd
000000e0: 9298 1a3d 324f 91bd 7de5 01bd 9991 363d
000000f0: 45c4 a73d bcce 87bd dabf d2bd a0de 223e
-0.02314169 -0.026169313 -0.14981413 0.22339518 -0.09223231 0.1612477 0.119659685 0.03366001
-0.23223914 -0.28954154 0.010410431 0.16166458 0.06786983 -0.027368447 0.116435975 0.017221732
0.094446376 -0.13879967 0.4208781 -0.016485771 0.046532605 0.14303762 -0.10782548 -0.106870286
-0.18512225 -0.08041643 -0.16887848 0.14389183 0.1604871 -0.04499721 0.13740993 0.04877353
-0.042257503 0.26617983 -0.02390919 -0.065424174 0.084415264 -0.14716241 -0.097672194 0.032252975
-0.12331858 0.08277989 -0.020309916 -0.022577116 -0.24512632 -0.13465224 -0.014720542 -0.04727228
-0.008443898 -0.024989864 0.18368512 -0.15244412 -0.07593065 0.17918013 0.09062239 -0.07817662
0.03774316 -0.070951834 -0.031712998 0.044572446 0.08191732 -0.06631228 -0.10290499 0.15905237

weight f4 [64]
00000000: a1dc 863f 2fe0 2840 5c88 2440 e545 ae3f
00000010: 95a0 7d3f 4c9d 873f 5297 783f bb0a 713f
00000020: fc15 9f3f fa61 903f 5874 8a3f 4662 6d40
00000030: 9a72 573f 6c8d 2640 c65d 633f cb5f 643f
00000040: a092 723f 42da 6d3f 9f88 1e40 66a0 603f
00000050: 42d1 b53f 0d1d 5f3f 320b 8a3f 3904 913f
00000060: cdb1 1040 fb6f 533f a701 6940 1ae1 843f
00000070: c4e6 af3f cae7 963f 95b2 983f 3643 ea3f
00000080: 9cca aa3f 3c0d 8c3f 4412 833f 57d4 a33f
00000090: 1441 b53f 517d 8d3f 5901 ac3f 3a0b 863f
000000a0: 742c 673f 0704 1b40 521d 593f 15bd 7a3f
000000b0: 9026 2940 75a1 a33f d641 a33f cdee 2f40
000000c0: 45f9 2f3f 2dd3 723f 4121 1b40 6fc2 6b3f
000000d0: 7bd3 983f 9bf0 3d40 0670 833f 2d87 943f
000000e0: 7449 8d3f 69d7 323f 173d 823f e94c af3f
000000f0: 4dc9 6b3f 5d6e 5e3f 7881 883f 9115 503f
1.0536081 2.638683 2.5708227 1.361508 0.99073154 1.0594878 0.97105896 0.94157
1.2428584 1.12799 1.0816755 3.7091231 0.84159243 2.6023817 0.8881496 0.8920867
0.9475498 0.9291116 2.4770887 0.8774475 1.4204485 0.871537 1.0784667 1.1329414
2.260852 0.82592744 3.6407259 1.0381196 1.3742299 1.1789486 1.1929499 1.8301761
1.3343081 1.0941539 1.0239949 1.2799176 1.4160485 1.1053869 1.3437911 1.0472176
0.90302205 2.4221208 0.84810364 0.97944766 2.6429787 1.2783648 1.2754467 2.7489502
0.6873973 0.9485348 2.4239047 0.9209356 1.1939539 2.9678104 1.0268562 1.1603752
1.1038041 0.6985994 1.0174893 1.3695346 0.92104036 0.8688715 1.0664511 0.8128291

bias f4 [64]
00000000: 54bd 57bd ca45 26be 538b 8b3d efe0 09be
00000010: 22ed 003d f580 f2bc dd92 013f 8014 3a3e
00000020: 0c99 dabe fd31 28be d851 3cbe 85dc 8e3d
00000030: 712c 653e fd0c 20bd f74f e5be 4a36 c43e
00000040: 8dd9 bdbe 6b61 d53d f870 ef3e 7737 e73e
00000050: c71b 94be a47c 8dbe d497 e6bd 3fec a03e
00000060: f17b 15bf 0c86 efbe 6320 c5be cf12 0dbf
00000070: a2d9 03bd 04bf 55bc 2ce1 913e 39a9 7bbe
00000080: 09fb 90be f288 903e ceaa 973d cc15 89bd
00000090: d10d 053e f59f 0cbf e390 30be 144d debe
000000a0: 7d51 c43e 0fba a0be dc42 443d 95ae 92bd
000000b0: d091 b0be b023 21be 0185 973d 4c8a ebbe
000000c0: 5b0b 7cbe cba1 a4be 191a 3ebe ef41 7c3e
000000d0: 50f8 043e 661b 74be be6f 523e 2c81 98be
000000e0: 55a5 c23e ba8a c93c 1aa9 1cbf 2d1f 37be
000000f0: ee3b 023e 6e8e 8dbc 4409 bb3e 6eed 80be
-0.05267079 -0.1623756 0.06813683 -0.13464712 0.031476147 -0.029602507 0.5061472 0.18171883
-0.4269489 -0.16425319 -0.18390596 0.069756545 0.22380234 -0.039074887 -0.4478757 0.3832267
-0.3708004 0.10418972 0.46765876 0.45159504 -0.28927442 -0.27634156 -0.11259428 0.3143024
-0.58392245 -0.46781957 -0.38501272 -0.55106825 -0.032189973 -0.01304603 0.28492105 -0.24576272
-0.28316525 0.2822948 0.07405625 -0.066936105 0.12993552 -0.54931575 -0.1724277 -0.4341818
0.3834342 -0.3139195 0.047915325 -0.07162205 -0.34486246 -0.1573627 0.07398415 -0.4600395
-0.24613707 -0.32154688 -0.18564643 0.24634527 0.12985349 -0.23838577 0.20550439 -0.2978605
0.38016763 0.024602283 -0.6119553 -0.17882986 0.12718174 -0.01727983 0.36530507 -0.25181144

weight f4 [138, 64]
00000000: 661d 28bf 2719 febc 54b7 8abd d583 debd
00000010: ee1e cdbd 8683 f1bd e87e fe3c d53c 163f
00000020: fd61 f1be 7e96 81be 253d 9c3e 6b98 983c
00000030: 72ec 06be 36a3 923d 35c1 ba3e 2f9b 20bf
00000040: 9f61 b0be 4862 203f 336c 313c 9b13 6d3f
00000050: 9b21 a93b bf28 493f 07e2 babe 5b83 803e
00000060: a2e0 34bd fead dabe 19f8 693c ffc1 ea3e
00000070: 77aa 94bd 2d45 ddbd 08e3 41bc f921 c13d
00000080: 43e9 8bbd 70ec 8bbe be76 e1bf e42f b13b
00000090: caf8 33bc 0212 e83c b924 9a3d d14d 99be
000000a0: 0696 ccbe 24b5 ecbd 3576 0fbf b903 f03d
000000b0: 6a29 c93c c24d 523d a90d 34be c41e 503e
000000c0: b3d0 99be e15d 97be a9ba eebc a152 fc3d
000000d0: bbbc 01be 2efb dcbc dce6 1a3d 2731 c33d
000000e0: 29a8 b5be ca93 d2be ce1b 9b3c 6316 943d
000000f0: 5689 e8ba 534a 123e 723b 1f3e 9b27 ba3c
00000100: 3e5f b2be 87c1 d5bb 7ccd a8bc f4d9 37be
00000110: 83b2 8fbe 6b40 70be 6627 913e b340 bf3e
00000120: 4dad 2a3e 0c16 273d 28b8 c03c 0fdb 73bd
00000130: 9492 033e 11b0 103d b363 2e3e 2103 81be
00000140: 7d24 8b3e 8e7b 69be de74 33bd c431 99bc
00000150: 6fb0 d83e 7ed8 9dbf e912 fbbd a710 c03e
00000160: 7651 9b3d f3a2 bfbe e14e a4bd 696a f13c
00000170: cc17 1f3e 5ae6 1fbe a231 f13d 4fc7 9b3e
00000180: ae81 44be deda 9d3d 7758 debd b99f 3f3b
00000190: 09a5 8fbe f4ec 50be 1a91 7ebe b235 2f3d
000001a0: da29 743d 3a5d 063e 3053 2abe b1c5 073e
000001b0: bd73 633b 55a8 0bbe 620c 883d 46ba d5bd
000001c0: 70f0 013f e3d5 76bc 1bbb eb3d bff8 fb3d
000001d0: 53cc 06be 0681 13bd e175 d3bd 3db7 0cbe
000001e0: b753 863e 3450 b33e 8f9e 90bd af76 bebe
000001f0: f427 af3e 9c38 c63f cc9f f9bf 215e f8bc
00000200: 58b4 193e d1e3 7c3d 0431 173d ac4f dcbd
00000210: b386 f8bd e8a0 5e3b 0945 62be 99ce 29bd
00000220: 9a80 5b3e b33c 1bbd 6db8 07bd 034f 9f3c
00000230: 3b0b 11bd 33b0 093d 33ce acbc 9cbe ba3d
00000240: e360 4a3d f4f2 823e 496d 86bd e8c5 4e3e
00000250: 5d1a f4bc 7b99 5a3e ab69 8f3b a45b f5bd
00000260: 1d02 643d eb69 f53b 74fd b23c 0c33 e3bd
00000270: d870 903b 3ae9 443d ddf5 65bd c19d 4c3d
00000280: c15d 0b3d 78f3 643d 6a7c c23e 66a3 293b
00000290: ac40 52bd 15e7 85be 7df5 bb3d c480 8bbe
000002a0: 09ff 20be 5bb2 5abd f7a0 5e3d 299e 63bd
000002b0: 8c4b 3d3d a87a eabc 509f b13d 7007 8e3f
000002c0: 7e9a 4e3e 768d 6d3b a5fe 2e3c e092 e23d
000002d0: 3586 c63d 8553 2c3d a418 2abb 3039 2e3e
000002e0: 9560 163e 1eda e23b 0a06 473e c0a9 983d
000002f0: a988 98bd 4007 443e 542f 89bd 662d f43c
00000300: 38cd 023e 57aa db3d 966b e83c 26af 873b
00000310: a416 e13b 8610 adbe ca76 12be 7dbd 823e
00000320: 82f8 a0be ac68 f8be 3dd2 e2bb 7657 503d
00000330: d73c 873e 709a bdbb 687d 81bd 5a24 313e
00000340: 3732 1d3e 3405 943e 4357 a5bc 0693 2c3e
00000350: b7a2 2fbe 74e1 a83d af50 ecbd ae26 9fbe
00000360: 70b1 1d3e 6e8d ae3e 0686 103c 1f93 533e
00000370: e109 803e d1c4 84be 9131 0a3e 4011 ba3d
00000380: c57f 56bb 0307 e6bd bf4a 743f c283 223e
00000390: de9f 41bc c5da 10be e7f2 1e3f 262a c73f
000003a0: 3796 023f 4532 9c3d 1f4d 0bbe d6d0 a03d
000003b0: 8abb 66bd 75f9 f73e d3cb 0cbd 0716 b5bd
000003c0: dcc2 db3d 4d17 c9bd a7be 313d fe14 0d3f
000003d0: c576 91bc 494d 863d bd00 393d 72d3 afbc
000003e0: 7998 cb3e bc88 af3d 8731 37bf 5f56 363e
000003f0: e557 0bbf d760 1dbe 3103 95be 467c 5f3c
-0.6566986 -0.031017853 -0.06773248 -0.10864989 -0.10015665 -0.11792664 0.031066373 0.5868657
-0.47145072 -0.2531013 0.305154 0.018627366 -0.13176134 0.07160036 0.3647553 -0.6273679
-0.3444948 0.62649965 0.010829019 0.9260804 0.005161477 0.785778 -0.3650057 0.25100216
-0.04415954 -0.4271087 0.0142803425 0.45851132 -0.07259076 -0.1080421 -0.011833914 0.09430308
-0.068316005 -0.27328825 -1.7614362 0.0054073203 -0.010984609 0.0283289 0.075265355 -0.29942182
-0.3995821 -0.11557987 -0.56039745 0.1171946 0.02455588 0.051343687 -0.17583336 0.20324236
-0.30042037 -0.2956381 -0.02914174 0.12320448 -0.12669651 -0.02697524 0.03781782 0.095308594
-0.3547986 -0.4112838 0.018934157 0.072308324 -0.0017741125 0.14286165 0.1555002 0.022723963
-0.3483829 -0.0065233144 -0.020605795 -0.17954236 -0.2806588 -0.23462074 0.2835037 0.3735405
0.16667672 0.04079251 0.023525313 -0.059535082 0.12848884 0.03532416 0.1703022 -0.251977
0.27176276 -0.22801039 -0.043812625 -0.018700488 0.42322108 -1.2331693 -0.12259466 0.37512705
0.07583897 -0.37429008 -0.080228575 0.029469686 0.15536422 -0.15615216 0.11777045 0.30425498
-0.19190094 0.07707761 -0.10856717 0.002923949 -0.280556 -0.2040289 -0.2486004 0.042775817
0.059610225 0.131215 -0.16633296 0.13259007 0.0034706437 -0.13638432 0.06642987 -0.104359195
0.50757504 -0.015065643 0.11510297 0.12303304 -0.13163881 -0.03601172 -0.10325218 -0.13741775
0.26235744 0.35022128 -0.07061493 -0.37199923 0.3421017 1.5486026 -1.9501891 -0.030318322
0.15010202 0.0617407 0.03691198 -0.10757384 -0.12135067 0.003397042 -0.22096647 -0.041456793
0.21435776 -0.037899684 -0.033134867 0.019446855 -0.0354111 0.033615302 -0.021094417 0.09118387
0.049408805 0.25575984 -0.06563813 0.20192683 -0.029797727 0.2134761 0.0043766103 -0.1198037
0.055666078 0.007489433 0.021849371 -0.11093721 0.0044079833 0.048073985 -0.056142677 0.049955133
0.034024958 0.055896252 0.37985545 0.0025884747 -0.051331207 -0.26152864 0.091776825 -0.27246678
-0.15722288 -0.05339275 0.054352727 -0.055570755 0.046214625 -0.02862294 0.086729646 1.109602
0.20176122 0.0036247647 0.010680829 0.110631704 0.09693567 0.042071838 -0.0025954628 0.17014003
0.1468528 0.0069229743 0.19435897 0.07454252 -0.07447941 0.1914339 -0.0669848 0.029806804
0.12773597 0.10725849 0.028371613 0.0041407524 0.006869154 -0.3380167 -0.14303127 0.25535193
-0.31439596 -0.48517358 -0.006922035 0.05086466 0.26413605 -0.0057862327 -0.063227475 0.17299023
0.15351187 0.2891022 -0.020183211 0.1685296 -0.17151915 0.08246127 -0.11538827 -0.31084198
0.15399718 0.34092277 0.008821016 0.20661591 0.25007537 -0.2593141 0.1349547 0.090853214
-0.0032729965 -0.11231806 0.95426553 0.15870574 -0.0118179 -0.14145954 0.6208939 1.5559738
0.5101046 0.07626776 -0.13603638 0.07852332 -0.056331195 0.48432508 -0.03437407 -0.08842092
0.10730526 -0.098188974 0.04339471 0.55110157 -0.017756829 0.0655771 0.04516672 -0.02146313
0.39764765 0.08571002 -0.7155995 0.17806385 -0.5443099 -0.15368973 -0.29103997 0.013640469

bias f4 [138]
00000000: 5dcd 423d afcb f23d d11d 22be 2ead 1f3e
00000010: 3482 bc3c 0a18 ecbe 43f2 96be 8a7e 823d
00000020: dff9 84be 69f2 933e 8502 7cba 9bd9 d3be
00000030: 7013 343e 1ad9 10be a42f 2b3d d764 19bc
00000040: 0274 33be 5bac b9be f009 19be 524f b1be
00000050: b01b e23e 098a 963e 926c f43e b4b0 2e3f
00000060: 29d9 133f 1572 cf3e 72c5 6e3e fad0 1a3f
00000070: 3bd5 a43c c93e 8b3c b252 443d 1a70 a7bd
00000080: df3c 12be db10 8ebc ab1f 80be 571f 283c
00000090: 8fb9 323c 9074 32b7 b01f 2fbf 6064 25bd
000000a0: cab5 c9be 75b4 2ebf 2051 5ebf bc1d 9dbe
000000b0: 04a7 edbe d205 11bf 2ef1 9fbc b2c5 a8be
000000c0: fe9c 16be 66d6 a03d a2f8 2abe 3ed5 8abc
000000d0: 984d ae3d 2efd f1be 6bc4 33bc 5d6c e7bd
000000e0: c57a a3be 2010 103e de2c 953c a3bf a33c
000000f0: 7e31 e8bb 9a4b a0be e24b 6cbe 7833 35bf
00000100: b4c6 60be 5fc7 8abe 5af5 23bf 1c52 bebe
00000110: b0c6 63be e88a 1fbf cdb8 1dbf 255a fbbe
00000120: 8a4b b8be 5b69 51bd d413 12bf 714c 07bd
00000130: d17b 3dbe c155 95be 5289 17be 67e3 5fbe
00000140: 277d a6be d513 67be 3036 c4be f0cb 1ebe
00000150: f975 6cbd 7f39 4dbe 354b 073d 1384 cdbe
00000160: bda1 01bf b08d bebe ca53 25bf 16dc efbe
00000170: 2c2e c7be 8249 84be e415 51be 2985 debe
00000180: 6605 d2be b44b 04be 1cc2 acbe ca62 fcbd
00000190: 92a5 7dbe eb2e 98be e244 7abe 4380 d4be
000001a0: 7a2b 67be a148 b63b 8952 14be 0374 62be
000001b0: 66b2 9fbe ae9a 02be f238 66bd 555b acbe
000001c0: abcc 02bb 692b f9be ab37 c6bd 1e34 9dbe
000001d0: 1932 09bf 6827 90bd a7d8 df3d f8c4 9cbd
000001e0: 85a6 aabe 759d acbe 1e35 533d a881 dc3d
000001f0: 25d3 18bf 1a43 d63d a4b2 fabd 6e86 aa3d
00000200: 2d38 b53c 836c 3ebe 083c 4c3d 639c 92bd
00000210: 474f bbbe b4ba e9bd afe5 8bbd 3ceb 82be
00000220: 0277 f63d c37f e6be
0.04755913 0.11855256 -0.15831687 0.15593407 0.023011304 -0.4611209 -0.29481706 0.06371792
-0.25971887 0.28895882 -0.00096134125 -0.41376957 0.1758554 -0.14145318 0.04179348 -0.009362421
-0.17524722 -0.3626431 -0.14945197 -0.3463083 0.4416175 0.29402187 0.47739083 0.6823838
0.57753235 0.40516725 0.23317507 0.6047512 0.020121207 0.016997712 0.047930427 -0.081756786
-0.14281033 -0.017342022 -0.2502416 0.010261378 0.010908498 -1.0636766e-05 -0.68407726 -0.04037893
-0.39396507 -0.68244106 -0.86842537 -0.30686748 -0.46416485 -0.56649506 -0.019524183 -0.3296333
-0.14708325 0.07853393 -0.16696408 -0.016947385 0.085108936 -0.47263473 -0.010972123 -0.112999655
-0.31929603 0.14068651 0.01820987 0.01998884 -0.007085978 -0.3130768 -0.23075822 -0.7078166
-0.21950799 -0.27105233 -0.6404625 -0.3717202 -0.22243762 -0.6232133 -0.6161011 -0.49092212
-0.35995132 -0.051125865 -0.57061505 -0.033031885 -0.18504263 -0.29166988 -0.14798477 -0.21864091
-0.3251736 -0.22566159 -0.38322592 -0.15507483 -0.057729695 -0.20041464 0.033030707 -0.40139827
-0.5063742 -0.37217474 -0.64580977 -0.468476 -0.38902414 -0.25837332 -0.20418507 -0.43460968
-0.41019744 -0.12919503 -0.33741844 -0.1232353 -0.24770191 -0.29723296 -0.24440339 -0.41504106
-0.22575179 0.0055628573 -0.1448461 -0.22114567 -0.31190795 -0.12754318 -0.05620665 -0.3366343
-0.0019958417 -0.48665932 -0.096785866 -0.30703825 -0.5359207 -0.07038766 0.10929995 -0.07654756
-0.3333017 -0.3371388 0.05156433 0.107669175 -0.5969718 0.10462017 -0.12241104 0.08326422
0.022121513 -0.18596081 0.049861938 -0.07158735 -0.3658392 -0.11412564 -0.06830918 -0.25570095
0.12034418 -0.4501935

weight f4 [64, 160]
00000000: be4c 0fbe 6c75 babc 9d3d 363d ecdb 99bd
00000010: 4056 7b3d 43e6 a03c da4e 8ebc 45a9 edbc
00000020: 8dde e03c dc01 e53d d926 503b 500b 4fbd
00000030: 416e 723e b198 acbe c992 df3d 67fe 283c
00000040: cc55 5a3d 4aa6 e1bd cfff 1fbe d7d1 ba3e
00000050: 6c21 c53e 31fe c9bd 7384 1e3d 118f 903e
00000060: c7af 933d 9790 bfbd b3ce 80be 388c 813d
00000070: 374d d8bc cc83 003e ca76 debd 1d5b 9e3d
00000080: c074 e1bd b633 f5bc d45c b53c 4ea9 6f3e
00000090: 0d3b 6cbd c880 c33e 1cb7 743e ab2c a83e
000000a0: 1a51 773d e707 523e b175 013e 6199 b0bd
000000b0: acd3 39bd 8195 a63c f549 00be bb9a cdbe
000000c0: 7cda 293d 3090 853e 7e74 c73e 0788 d2be
000000d0: b465 083d 2fa7 35bd 6b79 2f3e f6b5 9b3e
000000e0: 54fe 353d c085 723d 21e8 4cbe cefa 46bd
000000f0: 4d3c 10bd 7df0 63bd 9167 4dbd b620 c2be
00000100: 7051 6cbe ffba b73d 7913 ecbd d64d 30bd
00000110: 2107 af3d 291a 8e38 2893 e7be 7309 f3be
00000120: d909 063b a014 f4bc 8cc1 ca3d 3fd7 cabd
00000130: bee4 393d 3ad3 21bd 5d39 f5be fffc c1be
00000140: 0141 433e 431e 31bd 7308 24bd 2244 813c
00000150: e73a 83be 4357 253e 466e e6bd 3cf3 c83c
00000160: 2934 2c3e 709c bd3d 8cbf c53c 8810 9fbd
00000170: 5af9 603d 385f 213e d29a 2cbd 4734 85bd
00000180: f9dc 313e 15f6 b7bb d800 ec3c 5d84 81be
00000190: b544 3dbe 525e 69be 92cf c33e 03de cabd
000001a0: c847 9d3d 2208 313d bba8 fb3d c83d 87be
000001b0: a9b2 7fbc e1e3 67bd 85a4 003d e8dc 843d
000001c0: 0e16 483d 1280 413d 93cb 003e fe8f 94be
000001d0: 37fe ea3c 24c1 803d 62ef 103c d2a9 573d
000001e0: 4986 5cbd 9d62 3c3b fcce fe3d e8a2 8d3d
000001f0: efe2 353e 0e52 913d c64b c13d 4567 9a3d
00000200: 607e fa3d a962 943d 1ec4 203e dfae 113f
00000210: 147b 713e d942 8d3d 60a2 a33d b35e 953d
00000220: 9fbd cb3d 2bb7 3f3c 6599 fcbd 2cf8 f03c
00000230: f4d0 c63c 75f6 ac3d 449d 3e3e 1ddd 403e
00000240: 7689 a73c 200b 843c 12ae e8bd b3be 91bd
00000250: 8bcd ee3d 2843 bdbc cdad c53d a02b d73d
00000260: 9182 483c fa11 2cbb 2a27 6ebe 55fe 3ebd
00000270: ddc0 0c3e cecf b7bb 70d1 773e a0f5 413d
00000280: bc8a 563d 497f 90bd df78 91bd d34a bbbe
00000290: 0e26 563c 9106 963e a9ee 5e3e de5b a43d
000002a0: de5f 0bbe 0ec6 d7bb da67 8ebd 16ab b83d
000002b0: fcd6 293d 772f 22be bb8d 0a3a bc46 f4bd
000002c0: 01b5 01bf beb1 56be 160d 853d 1616 e7be
000002d0: 3b8c 9cbe b5b4 47bd 1a7e 05be 35a3 913c
000002e0: 8040 93bd 2eb1 5e3c 539d 8fbc 3217 963c
000002f0: e43b f5bd 4edd 48bd 3007 b8bb c412 7e3d
00000300: 878d 9f3d f355 e43b cd2f 3b3d e2e6 193c
00000310: 5b2d 9b3d 18d7 adbc 32db e6bd f29c b93b
00000320: 4a61 63bd 5a21 383a d771 6e3d 5b0e 55bc
00000330: d83c 1bbd a2e4 a73b e141 aebd 8e7d eb3d
00000340: 9bed 6abd 8d1a 17be 5c9d 80be 570b 1d3e
00000350: 766b 21be 057b 6e3d f1ed 05be cb03 943e
00000360: e03d 65bc d419 fcbd d6c2 493e 0ca5 ecbb
00000370: 8df8 c83c 32f6 943c 8458 cabc 27a7 38bd
00000380: cadc ea3d 088f 3f3e 8435 cc3d 1997 1b3d
00000390: 25bd 1f3d 0aea 09bd e050 9bbd 2616 bebd
000003a0: 5dee 363e 3131 4f3e a8c2 673e f144 ee3b
000003b0: 631a b23b aa24 29be 0ae8 3cbe a7bf 41bd
000003c0: fbe4 aa3d 93b7 843e 19c0 093e 1bde 8f3d
000003d0: 84aa efbd e81a c33b a688 a3bc 5228 d43c
000003e0: d2a8 ca39 623b cf3d 5ca4 593e 6770 133e
000003f0: 582a f1bc 7797 54bd 162a f3bc 3e70 843d
-0.13994119 -0.02276107 0.044492353 -0.0751265 0.06136155 0.019641047 -0.017371584 -0.029011378
0.02744987 0.11181995 0.0031761436 -0.050547898 0.23674871 -0.33710244 0.10916669 0.0103145605
0.05330448 -0.11018045 -0.15624927 0.3648822 0.3850206 -0.09862936 0.038700532 0.2823415
0.07211261 -0.0935375 -0.251577 0.06325573 -0.026404006 0.12550277 -0.10862501 0.07732222
-0.110085964 -0.029931884 0.02213899 0.23404428 -0.057673503 0.3818419 0.23897976 0.3284658
0.06038008 0.20510827 0.12642552 -0.08623005 -0.04536788 0.02033496 -0.12528212 -0.40157112
0.04146813 0.2608657 0.38956064 -0.41119406 0.033300117 -0.04434889 0.17136161 0.30412263
0.044432 0.059209585 -0.20010425 -0.04857903 -0.035213757 -0.05564927 -0.050147597 -0.3791558
-0.23077941 0.089712135 -0.115271516 -0.04304298 0.085462816 6.77596e-05 -0.4522946 -0.47468147
0.0020452647 -0.029794991 0.099001974 -0.09904336 0.04538416 -0.039508082 -0.47895327 -0.37888333
0.19067766 -0.04324175 -0.04004712 0.015779559 -0.25630876 0.16146569 -0.11251502 0.024530046
0.16816773 0.09258354 0.024139188 -0.07766825 0.0549253 0.1575898 -0.042139836 -0.06504112
0.1736945 -0.005614052 0.028808996 -0.25296298 -0.18483241 -0.22789887 0.382443 -0.099056266
0.07679707 0.043220647 0.12288042 -0.26414323 -0.015606561 -0.056613807 0.031406898 0.06487447
0.048849158 0.047241278 0.12577657 -0.29016107 0.028685672 0.06286839 0.008846136 0.052652188
-0.053839 0.0028745302 0.12441823 0.069158375 0.1776235 0.07095729 0.09438281 0.07539228
0.12231135 0.072453804 0.15699813 0.5690746 0.23582107 0.06897516 0.07989955 0.07293453
0.09948277 0.0117013855 -0.12333945 0.029415213 0.024269558 0.084454454 0.1861468 0.18834348
0.020451289 0.016118586 -0.11361326 -0.07116451 0.11660298 -0.023103312 0.096522905 0.10506368
0.012238161 -0.0026255832 -0.23257127 -0.04662927 0.13745447 -0.005609489 0.24200988 0.047353387
0.0523784 -0.07055528 -0.071031325 -0.36580524 0.013070596 0.29301885 0.21770729 0.08025335
-0.13610789 -0.0065848893 -0.06953402 0.09017007 0.04146479 -0.15838419 0.0005285402 -0.11927554
-0.50666815 -0.20966241 0.064966366 -0.45134038 -0.30575737 -0.04875632 -0.13036385 0.017778018
-0.07190037 0.013592048 -0.017531073 0.018321607 -0.11974314 -0.049039178 -0.005616091 0.062029615
0.07790666 0.0069682538 0.045699883 0.009393426 0.0757701 -0.021220729 -0.11272277 0.0056644613
-0.055512704 0.0007024013 0.058214035 -0.013003911 -0.037899822 0.0051236907 -0.08508659 0.11498557
-0.057355504 -0.14756222 -0.25120056 0.15336357 -0.1576365 0.05822279 -0.13079049 0.28909144
-0.013991803 -0.12309614 0.1970323 -0.0072218236 0.02453258 0.018183801 -0.02470041 -0.045081284
0.114678934 0.18706906 0.09971145 0.037985895 0.03899874 -0.033670463 -0.07583785 -0.09281568
0.17864366 0.20233609 0.22632849 0.007271402 0.0054352744 -0.16517892 -0.18447891 -0.047301915
0.08344456 0.25921306 0.13452186 0.07024785 -0.11702445 0.005954135 -0.01996262 0.025898132
0.00038654223 0.10118748 0.21254104 0.14398347 -0.029439136 -0.05190226 -0.029683154 0.06466721

bias f4 [64]
00000000: 62c9 75be 567e bf3e a4b0 b63d c923 eb3e
00000010: 890d 3cbf cece 59bf ef1a d53e 0ed2 eb3f
00000020: d2de 6bbf ce49 29bf 6391 c53f 966e 85bf
00000030: e772 b8be eee0 1fbf 24fc 8fbf ffa4 68bf
00000040: 23cd 523f caea a93f 11a4 583f ebfe 9b3f
00000050: 2e86 84bf 5f68 fdbe 04d7 fcbb cfdf 7a3f
00000060: 5ad6 82bf abbf 8fbe 8817 a6bf d7d7 183f
00000070: 1ec1 d7be 70ce 0140 970a 8a3e 29b3 3abf
00000080: 08d5 b63e 96d3 ccbf ea12 f4be dc60 31bf
00000090: facc 433f 6688 cb3f a8fc 69bc e5d7 193f
000000a0: bbc7 7b3f da20 0b3e 10fc 84bf d3f0 213f
000000b0: f177 943e aed4 683f 836b 1d3f 3972 1abf
000000c0: d32b 12bf bb81 45bf 558d 4e3f fce7 8abe
000000d0: 663f 7dbf 9acc 3b3f f282 a73e 4f7a 84bf
000000e0: f257 ebbf 30bc 6b3e 7917 59bf 135a fabd
000000f0: f622 6c3f 62b4 573e 5d6e e03d 1a0a 1b3f
-0.24002603 0.37401074 0.0892041 0.4592574 -0.73458153 -0.85081184 0.4162211 1.8423479
-0.9213687 -0.6612824 1.5434994 -1.0424373 -0.36025164 -0.6245259 -1.1248822 -0.90876764
0.82344264 1.3274777 0.84625345 1.218717 -1.0353448 -0.4949369 -0.0077160615 0.97997755
-1.0221665 -0.2807592 -1.2975931 0.59704345 -0.42139524 2.028225 0.26961204 -0.72929627
0.35709405 -1.6002071 -0.4767068 -0.6928842 0.76484644 1.5901 -0.014281429 0.60095054
0.9835164 0.1358675 -1.0389423 0.63258094 0.28997758 0.90949523 0.61492175 -0.6033054
-0.5709812 -0.7715108 0.80684406 -0.27130115 -0.98924863 0.7335907 0.3271709 -1.0349826
-1.8386214 0.23021007 -0.8480144 -0.122242115 0.92240846 0.21064904 0.1095855 0.6056229

weight f4 [64]
00000000: f4b8 a33e b1e2 6b3f 1cea 723e 1e6d 0e3f
00000010: 9b98 c43e b6e2 053f bd44 e83e 13bd ad3f
00000020: d82a 063f 88bd 053f 00d0 ac3f da1c ca3e
00000030: 0049 923e 1635 843e bad8 e13e 1477 bd3e
00000040: cffc b63e 0b53 2e3f c666 983e 3e6d c73e
00000050: 8844 e93e 4e49 ac3e 94c5 a73e 358f ca3e
00000060: 807d c63f e6f4 9e3e 49ba 883f 06b3 343f
00000070: cfe0 873e 5067 883f e8cf 8a3e b394 c23f
00000080: ecf5 b03e 281b b13f 6f87 8b3e fd93 f13e
00000090: b344 de3e 8f76 2d3f 1e75 233e c631 2a40
000000a0: f5a0 4e3f 7048 083f a3e7 563f 56c8 4e3f
000000b0: 2361 a33e ca69 343f 31f1 943e 3fb2 dc3e
000000c0: 5bee ce3e f5b3 413f 838d 043f a02c 2b3f
000000d0: 1687 bc3e 208c cc3e 3d88 8b3e 971e d33f
000000e0: 8e2d 853f ee1b d03e 05a0 963f 6623 e03e
000000f0: 4e2c 353f 0385 3d3e 50ad 4b3f 5fab c23f
0.31977046 0.9214278 0.23722118 0.5563525 0.3839768 0.5229906 0.45364943 1.3573326
0.52409124 0.52242327 1.3500977 0.39475137 0.2857132 0.2582175 0.44110662 0.37004912
0.35739753 0.68095464 0.2976591 0.38950533 0.45560098 0.33649677 0.32767928 0.39562383
1.550705 0.31046218 1.068185 0.7058567 0.26538703 1.0656528 0.27111745 1.5201629
0.34562624 1.3836412 0.27251765 0.4718322 0.43411788 0.6775903 0.15962645 2.659288
0.8071435 0.5323553 0.839472 0.8077444 0.31910047 0.7047392 0.29090264 0.4310474
0.40416226 0.7566522 0.5177843 0.6686497 0.36821812 0.39950657 0.2725238 1.649371
1.0404527 0.4064631 1.1767584 0.43777007 0.7077073 0.18507771 0.7956133 1.5208548

bias f4 [64]
00000000: 2f63 33be f0c6 ecbe cb00 ba3e 46a3 fc3e
00000010: 7952 c0be 90e1 09bf d643 163e 8b81 babe
00000020: 7e35 5fbe 91c6 17bf 0118 013e 5fcd 073e
00000030: 0407 873c 6f55 db3d 6676 e13d 57b8 15bd
00000040: 2f2f e8bd 352e a53e bf0a 0ebf aec9 cdbd
00000050: 6a8d 7abe de53 bebe f4a4 a43e cc84 2b3e
00000060: 35b5 21bf a550 24be 6c23 ccbd 552c 0a3f
00000070: 3144 d4bd f11b a7be f6a2 903e 038b d0be
00000080: a7df 88be 5688 8ebe 83b6 d13d c0fd bdbe
00000090: 6cf1 993d 400f 52be 27bf 053e e342 86be
000000a0: c946 8d3e e191 e93e e443 c8be b272 24bd
000000b0: 220e 163e bc93 fb3e 8752 be3e bce7 85be
000000c0: 0565 2a3e de9d eebe d3a8 053f 59a9 3abf
000000d0: bd7d a93d 690f 1eba daca 423e 6d37 41bf
000000e0: 8fd8 17be 23b0 3d3d 66c2 b8be 058e dabe
000000f0: 9223 1e3e 6293 1d3c 59f7 1bbf 56d7 0e3f
-0.17518304 -0.46245527 0.3632873 0.49343318 -0.37562922 -0.53859806 0.14674315 -0.36426958
-0.2179775 -0.59287363 0.12606813 0.13261937 0.016482837 0.107096545 0.11008911 -0.036552753
-0.113371246 0.32261816 -0.5548515 -0.10048233 -0.24468008 -0.3717336 0.321571 0.16749877
-0.63167125 -0.16046388 -0.09967694 0.53973895 -0.10364569 -0.32638505 0.2824933 -0.40731058
-0.26733133 -0.2783839 0.102398895 -0.37107658 0.07516751 -0.2051363 0.130612 -0.26222906
0.27593067 0.4561911 -0.39114296 -0.040148444 0.14653829 0.4913615 0.37172338 -0.26153362
0.16640098 -0.46604818 0.5221073 -0.72914654 0.08275936 -0.0006029518 0.19022694 -0.754752
-0.14828704 0.046310555 -0.36085814 -0.42686477 0.15443256 0.009617658 -0.609243 0.55797327

weight f4 [32, 64]
00000000: 6369 ff3c 285e cabd 85cb 083c 30d6 a9bd
00000010: 5396 063e 9a1f 11be 58bd 603d c003 213e
00000020: 4c71 0a3d b175 45be 1d4a acbc 3358 81be
00000030: cb7c f73d b88a 253d dabb e5bd de7b 2fbe
00000040: 48e7 153e fffe d03c 699f 003d aa85 813e
00000050: b782 2dbe a020 f5bd e02b cabc f613 4cbe
00000060: 4bea c3bd ec8a 0d3e 689d 84be b969 7a3c
00000070: 8271 5cbe fda6 dc3e 0333 45be 46d0 d33d
00000080: 13c9 ad3d db5b 71be 2369 b0be b3a4 36bb
00000090: 48d7 34bc 1f5b 14be e0f8 683d e3f1 cebd
000000a0: f505 0d3e d520 ccbd dc80 a63d b3b8 9abc
000000b0: 9ff1 86bd 0de1 aebd 1fae 443e b542 45bd
000000c0: 1828 0dbe 26ea 15be 9877 67bc e6cd ffbd
000000d0: 8d68 04be d2c0 04bd 89aa 32bd b590 393e
000000e0: a571 053e 7fca 07be 4d9c 1cbe e221 8e3e
000000f0: 35d8 e2bc bc81 193f 664f 0d3e 95f5 213c
00000100: c9cc 60bf d7f7 253d c543 873e 1842 563d
00000110: 4d0d 953c a274 37be 49eb 663e 10b7 1c3d
00000120: 35ca 45be 21df 0dbe f14b 4a3d 4cfc 29be
00000130: cca0 70bd ca1e 953e d345 a3be 9ba7 21bf
00000140: 937a 083f 9743 0b3f 42f0 3e3e 93b2 c63d
00000150: 7294 1abe d305 b7be 91b3 cf3d a696 abbd
00000160: 371b 95bc 9d93 11be 541d 3ebe 21b5 92bc
00000170: 41f4 c6be c557 19bd 16b6 103f bad9 47bc
00000180: dfd5 adbc 7a6e da3d aaa2 a5be 8322 c6be
00000190: ef26 533e 0c4b 883e fc67 063f d143 f6bd
000001a0: e8c6 bcbc 2b4a 7ebc 5208 1bbe ab6d 39bd
000001b0: 14dd 063e 625a 16be 8afb 083f b2a6 0d3e
000001c0: b466 e6be 2204 803e 79d0 a73e d064 e2bd
000001d0: bc04 67bd 794a cc3e b12a 023f 9caa ab3e
000001e0: d6e7 3b3e 4b96 8b3e bc35 55bd 2e0d 8dbe
000001f0: 411e 353c 2f33 b63e 2a5a 653e 014a 77bd
00000200: 0d35 46bd 6573 af3d e40c b83d 1181 9c39
00000210: cc9e 263e 68de 80be 6bb5 7dbe 1bf2 af3c
00000220: ab87 4c3e 778e 633e 49dc 683d 366c 003e
00000230: e277 c43e 0a6e eb3e e927 0cba 276f 8fbd
00000240: 6f6f 4d3e efa7 43be 1fe0 06bd ceec c5bd
00000250: e022 483e 7442 54bd c7f2 56bc 564a d63e
00000260: d888 46bd 62a6 073f 024d dd3e 6a0b 2b3e
00000270: 2ed6 173f ddec 61bf 56f8 143e e282 4cbd
00000280: f371 8e3d 0fa2 f93e 60de 2c3d da33 abbd
00000290: ffd2 abbe 463c bebe c58f 0d3e a83b eabb
000002a0: de7f 26be f762 493e c5c7 fd3d d565 20be
000002b0: 439a 113d 2a7c 0a3e 8688 91bd 7bac 413e
000002c0: c33d 643c 8ad7 37be 228c 86be c862 13bd
000002d0: 5e41 cd3d 7af6 c7be f1f2 f3be 3d57 463d
000002e0: 51e7 673e 8677 1a3e 71f0 053d 8885 163f
000002f0: f422 7ebe 3773 24bd e23d ab3d ec79 1e3e
00000300: fb68 87bc 484f edbd fbea 413d 140a 3f3d
00000310: 98ba 8abc fa4e 423e 4e22 dfbd 1cb7 2a3e
00000320: 327f a93e ef2d 1ebd 6794 b7bc 110d 513d
00000330: b715 7a3e 131b e83d 1fa9 8f3e 2ed3 513e
00000340: f2c4 ff3d 7bff f83c 3472 e0bd 2b44 e6be
00000350: b53e f3bd fe91 223d b8ea 733e 7f19 773e
00000360: 3d34 d1bd 211f 9b3e 4e75 ff3d 0767 753e
00000370: 66dc b3bd 54aa aebe 4283 233e 30de 0a3d
00000380: a478 063e 3212 c83e de62 0d3e 978b f53c
00000390: 85ee 8ebe 74d5 b5bd 07af 2cbd ce87 453c
000003a0: 3913 e83c d823 623e 10d4 01be f0e0 ccbd
000003b0: 756f 433e 3818 203e 57f2 123e 7d89 31be
000003c0: 134a da3d be6e e53d 92cd cfbc 2db5 153e
000003d0: 44d8 8d3d 9897 0bbc f037 07bd e1e2 d0bd
000003e0: 0e90 5e3e 33e9 8e3e 0e32 e6bc d335 05be
000003f0: d64d 6ebe 93c2 aabb ee70 673d d0dd 83bc
0.031178182 -0.0988124 0.008349304 -0.08292806 0.13143282 -0.14172211 0.054868072 0.15724087
0.033799455 -0.19283177 -0.021031434 -0.25262603 0.12084349 0.040415496 -0.112174705 -0.17137095
0.14639008 0.025512217 0.031402025 0.2529729 -0.16944395 -0.11969113 -0.024679124 -0.1992949
-0.09566172 0.13822526 -0.2590134 0.015283995 -0.21527675 0.43096152 -0.1925774 0.103424594
0.084856175 -0.23570196 -0.34455213 -0.0027869164 -0.011037655 -0.14487885 0.05687797 -0.1010473
0.13771804 -0.099672 0.08130047 -0.0188869 -0.06589054 -0.08539019 0.19207047 -0.04815932
-0.13784826 -0.14640102 -0.0141276345 -0.12490444 -0.12930508 -0.03241045 -0.043619666 0.18121608
0.13031633 -0.1326084 -0.15293999 0.27760226 -0.027690986 0.59963584 0.1379982 0.0098852115
-0.8781248 0.04051956 0.26418892 0.052309126 0.018194819 -0.17915586 0.22550692 0.03826052
-0.19315417 -0.13854648 0.04938883 -0.1660015 -0.058747098 0.29125053 -0.3188921 -0.6314637
0.53312033 0.5440001 0.18646339 0.09702029 -0.1509569 -0.3574663 0.101416714 -0.08378343
-0.018201454 -0.14216466 -0.18565875 -0.017908635 -0.38858226 -0.03743722 0.5652784 -0.012197906
-0.021220146 0.10665603 -0.32350665 -0.38698205 0.2062032 0.26619756 0.5250242 -0.12024654
-0.023044065 -0.015520613 -0.15139893 -0.045270603 0.13170272 -0.14682916 0.5350882 0.1383312
-0.4500023 0.25003153 0.3277624 -0.11054385 -0.056401 0.39900568 0.5084639 0.33528602
0.18350157 0.27263102 -0.0520532 -0.27549118 0.011054576 0.35585925 0.22397676 -0.06037331
-0.048390437 0.08566932 0.08986834 0.000298508 0.16271514 -0.25169683 -0.24776237 0.02147775
0.19973628 0.22222315 0.056850705 0.12541279 0.38372713 0.4598239 -0.0005346523 -0.070036225
0.2006204 -0.1910703 -0.032928582 -0.096643075 0.19544554 -0.051821187 -0.013119406 0.4185359
-0.048470348 0.52988255 0.43222815 0.16703573 0.5931119 -0.8825205 0.14547858 -0.049929507
0.06955328 0.48756453 0.04220426 -0.08359499 -0.33559415 -0.3715536 0.13824375 -0.007148225
-0.16259715 0.19666658 0.12391619 -0.15663846 0.035547506 0.13523927 -0.07106118 0.18913452
0.013930741 -0.17953315 -0.26278788 -0.035982877 0.100222334 -0.39055234 -0.47646287 0.04842304
0.22646834 0.15084657 0.032700006 0.587975 -0.24818021 -0.04014894 0.083614126 0.15476197
-0.01652955 -0.11587387 0.047343235 0.04664047 -0.016934678 0.1897544 -0.10895215 0.16671413
0.33104855 -0.038618024 -0.022409631 0.05103785 0.24422346 0.11333289 0.28058717 0.20490715
0.12488736 0.03039526 -0.109592825 -0.44973883 -0.11877195 0.03969001 0.23820007 0.2413082
-0.10215042 0.30297187 0.12473546 0.23965083 -0.08782272 -0.34114325 0.1596804 0.0339033
0.13131958 0.39076382 0.13807246 0.029973788 -0.2791635 -0.088786036 -0.042159107 0.012056304
0.028329479 0.22083986 -0.12678552 -0.10003841 0.19085486 0.15634239 0.14350258 -0.17337604
0.1065866 0.11202763 -0.025366578 0.14619894 0.06926015 -0.0085200295 -0.03301233 -0.10199524
0.2173464 0.27912292 -0.02810004 -0.13008814 -0.2327188 -0.0052111833 0.056504183 -0.01609698

bias f4 [32]
00000000: 4a38 a4bd dba2 4f3e 58e7 02bd 294e 2f3e
00000010: 2534 b2bd 1ce1 8c3e 7ba5 c4bd 660c ff3d
00000020: 0a8d a43d 26c3 18bc 40d2 4ab9 32a2 023e
00000030: 8aa7 d3bc f12a ddbd 7e85 5c3e 78a1 5e3d
00000040: 1511 d03d cf6b 513d 3e8a 4fbc 122c e9bd
00000050: 2f75 d6bd 2ea6 353e dfcd 65be 5b3a d03c
00000060: c303 3b3c c3ef 12be 05b1 0bbe 062e 88be
00000070: 8a45 a7bd b431 82bd 3a60 003f 3fb8 82bd
-0.08018549 0.20276968 -0.031958908 0.1711966 -0.08701352 0.27515495 -0.096018754 0.12453537
0.080347136 -0.009323871 -0.00019342545 0.12757185 -0.025836725 -0.10799206 0.21535298 0.054353207
0.10159508 0.051128205 -0.012667237 -0.11385359 -0.1047157 0.17739174 -0.22441815 0.025418451
0.011414471 -0.14349274 -0.13641746 -0.26597613 -0.081675604 -0.06357136 0.5014683 -0.063827984

weight f4 [32]
00000000: de50 473f 62be 933f 5c8c 473f bbdb 513f
00000010: 6059 203f 89b9 5d3f 51b4 493f 041d b23f
00000020: d6fa 6b3f 2e15 543f c9d3 4e3f a63e 383f
00000030: 714a 3e3f 3bb9 513f 774c 7f3f df18 453f
00000040: e356 013f b22e 583f 4c99 173f 69b0 503f
00000050: b55b 443f 3cda 5c3f 5cd7 553f 5f39 613f
00000060: 7153 383f 9eaf 9b3f 22db 5d3f 5356 413f
00000070: 4887 1a3f 7b73 323f 43c4 3d3f 972a 4d3f
0.7785777 1.1542475 0.77948546 0.8197591 0.62636375 0.8661123 0.78790766 1.3915105
0.9217962 0.8284482 0.8079191 0.71970594 0.7433234 0.81923264 0.9972605 0.76991075
0.50523204 0.8444625 0.5921829 0.8151918 0.76702434 0.862705 0.8353174 0.87978166
0.7200232 1.2162969 0.86662495 0.75522345 0.6036267 0.6970746 0.74127597 0.8014311

bias f4 [32]
00000000: 88ee 8e3c a43a 443e 79b2 00be 5c8c 263e
00000010: 3e27 373e de4d 75bc 8a7c 8ebe 1292 84bc
00000020: 2755 81bc 3ec2 e6bd 475a 393d c5be 633e
00000030: a12a c23b e250 b0bc cd93 b33e 79e6 dc3d
00000040: 5e32 bf3c 6821 02bd 61f2 2b3e c436 1f3d
00000050: b224 96bd 0b4f 053d 72ff 0e3d b17a 6dbd
00000060: 820f cabd dc83 7bbd 21d4 1abe b8a3 acbd
00000070: 6be6 18bb b820 323e 3c18 283d 7092 193e
0.017447725 0.19162995 -0.12568082 0.1626448 0.17886063 -0.014972178 -0.2782939 -0.016182933
-0.015787674 -0.112675175 0.04525211 0.22240742 0.005925492 -0.021522943 0.350737 0.10786147
0.023339447 -0.03177014 0.16791679 0.038870588 -0.07331218 0.032546084 0.03491158 -0.057978336
-0.09866239 -0.061405048 -0.15119983 -0.084296644 -0.00233307 0.17395294 0.041038737 0.14997268

weight f4 [256, 153]
00000000: 7225 abbd 658c b53c 3c9f 883d 906a 743e
00000010: 1801 77be b6db a53d fc0b a53d 4289 adbd
00000020: d54f ea3b 1a1d 9c3c 6c9e 1a3f 6539 1f3e
00000030: 6870 cf3c 8df8 57be 1578 943d 9575 b63d
00000040: 649a 713d 2c81 38be 4a3c 29be 9dda 91bd
00000050: e492 303e eaca 26bd b65a dbbe e2d9 11be
00000060: 6e00 8ebb 933e 823e b90a 5c3d fffd 16be
00000070: ae49 79be 05b6 7f3e 644d 533d 005c 44be
00000080: f197 543d 9ac8 713d b1be 9fbe 4e20 dbbd
00000090: 2be2 4dbc a42c a93d 02a9 afbb 9b12 91bc
000000a0: 0180 c7bb 4e3f b83d a2d1 b43d 9ba4 0bbe
000000b0: 47b6 38be 90d0 fd3c 6556 043e 6146 4ebe
000000c0: 280a a23c cd40 e7bc df43 973d 2f48 b8bc
000000d0: b93f c23d 7554 24be 7b60 75bc 3253 81bd
000000e0: 0eda 673e b8b9 023c 934d a13c 7588 8bbc
000000f0: 841c fcba f169 4fbd 86eb b9bd 7142 18bd
00000100: e920 35bb c2d5 583d 7c40 1e3b cd40 553c
00000110: fe91 2e3d d31c 113c 0d56 3f3d 599c 0fbd
00000120: fcda 583b db58 55bd cc0b 2fbe 47e2 1fbd
00000130: f307 40bc e8f6 69bd e4f0 3b3c 964f 5b3b
00000140: 9162 c7bd c639 063e f600 043f 59b0 513e
00000150: 4c90 5bbe 5367 793d fe53 90bb e5cb e9bd
00000160: 9c34 873e a73d 08be 83a0 fcbd 1892 103d
00000170: 89f8 e8bd 839e 04be 85e3 17be 493b 913c
00000180: 5712 673e ea8e ebbd c115 9c3d fa82 8c3e
00000190: ee97 2e3d b799 2cbc 42d8 3a3d 0855 ed3d
000001a0: a8e9 823e 458a 48be e49c e4bd 1c5d 0c3e
000001b0: 71c3 c73e cc9c 0b3d 4c02 b43d 1076 8f3c
000001c0: 1fd9 d1bc 0b65 083e aadf b23d 7306 103e
000001d0: 94bf dd3d 4bcb 1b3e 20cb 583e 844c 5d3e
000001e0: f240 223e e8e0 a13d 3998 323c d8c3 7f3e
000001f0: 9ecd a8bd 2c16 913e c9fe ad3c 0b30 83bc
00000200: 5dee 2d3e 8fd4 793d ca2d fe3d 32d5 36be
00000210: 7257 723e 09b8 0b3e 1a9c 073e c711 07be
00000220: cd8d a8bb c90b 5d3d b044 57be e9a5 52be
00000230: 8e1b 9a3d 1e20 04be 3ca9 02bf cbbd be3e
00000240: 742e 033e 9234 7ebd b062 623e ae27 f93d
00000250: 56b9 923e 7529 a3bb 8e0d 2cbe f21f 813d
00000260: ad56 d8ba 84f3 cabc f5bb e9bc 7c9a 863d
00000270: 9cc2 35be e46b c83c 6847 4f3d 9634 d9bd
00000280: 008b fa3d 0c99 51be 0bb7 df3d 95fb 033e
00000290: 7983 bfbc b15d 81be c678 1cbe 04ee 7f3d
000002a0: d4fd 143e 1b34 0c3c ded7 adbd 1f44 fdbc
000002b0: ff5f 67be 0f82 a63d d4c6 eebc 2c1b 94bd
000002c0: 5018 193e 915a 303d c08f 943e 154b a13e
000002d0: 4744 2fbe 0510 3d3e 33e6 07be 983b e8bd
000002e0: e246 283e 1aee 8ebd 7545 9e3d c0f6 27be
000002f0: cf17 3cbd 508f 8b3c 7e3c 493e a60c c53d
00000300: 2c00 1fbe 3dbc a93e 9f9c d9bd 70f8 bbbd
00000310: 6002 183e 82f0 0f3e 3b77 3e3d 248b ffbc
00000320: 00e0 8a3e 0781 fcbd ddf8 f8bb 0e39 f6bd
00000330: ffb4 94bd 0332 ccbd 8103 753e e6e5 793b
00000340: 78c9 f63d 79b7 e83c 6eec 0b3d 842d 42bb
00000350: 6f90 213e 6165 babd abf0 88bd c4a3 e7bd
00000360: 2f76 ccbd 42dd aebb 3191 a63d 9397 2a3c
00000370: 541d ac3d c366 433e 348a f43c 19ae 92bd
00000380: 4267 b13d 52dc 9abd 7bbb b9bd 7b51 dcbd
00000390: 672e e5bd 3434 f23c 75c5 56bd 5689 593c
000003a0: 7f2c f63d b716 bcbc 370d 87be 0fc4 d6bd
000003b0: 0ce7 583e 4464 cf3c ffc7 da3d 6954 663d
000003c0: 2f5c 55bd 527d b73e 5cc5 5fbd 5cea 333d
000003d0: 6dd1 3bbe e63e 25be 18b1 7e3e 147e d63d
000003e0: 2e4d b73c dd54 0dbe 1471 6cbe e35b 513d
000003f0: 4104 803e 34d0 c83c af7d 2a3e 8e09 29be
-0.083567515 0.022161672 0.066709965 0.23868775 -0.24121511 0.08098547 0.080589265 -0.084734455
0.00715063 0.019056845 0.6039798 0.15549238 0.025322154 -0.21090908 0.07249466 0.08909146
0.05898513 -0.18018025 -0.16526905 -0.07121775 0.17243534 -0.040720858 -0.42842644 -0.14243272
-0.0043335473 0.25438365 0.053721163 -0.1474533 -0.24344513 0.24971779 0.051587477 -0.1917572
0.051902715 0.0590292 -0.31200173 -0.10699521 -0.01256613 0.08260468 -0.0053607235 -0.017709067
-0.0060882573 0.089964494 0.08829047 -0.13637011 -0.18038283 0.03098324 0.12923582 -0.20144035
0.019780234 -0.028229142 0.07385992 -0.022495357 0.094848104 -0.16047843 -0.014976616 -0.06314696
0.22641775 0.007978849 0.01969031 -0.017032841 -0.0019234573 -0.050638143 -0.09078126 -0.03717274
-0.0027638024 0.05293823 0.0024147322 0.013015938 0.042619698 0.00885697 0.046712924 -0.035061214
0.003308951 -0.052086692 -0.17094344 -0.039034154 -0.011720645 -0.057120234 0.011471007 0.0033464185
-0.09735597 0.13107976 0.51563966 0.20477428 -0.21441764 0.060889553 -0.004404544 -0.11415843
0.26407325 -0.13304769 -0.12335303 0.035295576 -0.11375529 -0.12951092 -0.14832886 0.017728465
0.2256559 -0.11501868 0.07621337 0.27443677 0.04262536 -0.010534695 0.045616396 0.11588484
0.2556889 -0.19583996 -0.11162737 0.13707393 0.39016297 0.03408508 0.087895006 0.017512351
-0.025616227 0.13319795 0.08734067 0.1406496 0.10827556 0.15214269 0.21171236 0.2161122
0.15845087 0.079042256 0.0109005505 0.24977052 -0.08242343 0.28337228 0.021239655 -0.01601412
0.1698546 0.060993727 0.12411077 -0.17854765 0.2366617 0.13644423 0.13243142 -0.13190375
-0.005143857 0.053966317 -0.21022296 -0.20571102 0.07524787 -0.12902877 -0.5103948 0.37254176
0.12810689 -0.062061854 0.22107959 0.121657714 0.28657025 -0.0049793073 -0.16802046 0.06304921
-0.0016505324 -0.02477432 -0.028532008 0.06572434 -0.17750019 0.024465509 0.050605208 -0.10605733
0.122335434 -0.20468539 0.109235846 0.1288894 -0.02337812 -0.25266793 -0.15280446 0.06248285
0.14549953 0.008557345 -0.08488439 -0.030916272 -0.22595213 0.081302755 -0.029147543 -0.07231745
0.1495068 0.04305512 0.29015923 0.31502596 -0.1711589 0.18463142 -0.13271408 -0.113394916
0.1643329 -0.06979008 0.077280916 -0.16402721 -0.045921143 0.01703611 0.19651982 0.09621553
-0.1552741 0.33151427 -0.10625576 -0.09178245 0.14844656 0.1405659 0.046500426 -0.031194277
0.27124023 -0.123292975 -0.007598026 -0.12022601 -0.07261085 -0.099704765 0.23927118 0.0038131415
0.12050146 0.0284078 0.034161024 -0.002962918 0.15777753 -0.09101368 -0.06686529 -0.11310533
-0.09983479 -0.0053364346 0.08133162 0.010412115 0.084040314 0.19082169 0.029851057 -0.07162113
0.08662273 -0.07561554 -0.09068962 -0.10757729 -0.11190491 0.029565908 -0.052434403 0.013277372
0.12020206 -0.02296005 -0.2637727 -0.10486614 0.21181887 0.025316365 0.106826775 0.056232844
-0.052089866 0.358378 -0.054631576 0.043924674 -0.18341608 -0.16137275 0.24872243 0.10473266
0.02237567 -0.13801904 -0.23090011 0.05111302 0.25003245 0.024513341 0.16649507 -0.16507551
